
--- [START 2017-05-04 21:38:31] ----------------------------------------------------------------

** some experiment setting **
	SEED    = 123
	file    = /root/share/project/pytorch/build/forest-0/train-forest-0.py
	out_dir = /root/share/project/pytorch/results/kaggle-forest/new-xx05

** dataset setting **
	(height,width)    = (32, 32)
	in_channels       = 3
	EXT               = jpg
	train_dataset.num = 37479
	test_dataset.num  = 3000
	batch_size = 96

** net setting **

SimpleNet2 (
  (layer0): Sequential (
    (0): Conv2d(3, 8, kernel_size=(1, 1), stride=(1, 1), bias=False)
    (1): BatchNorm2d(8, eps=1e-05, momentum=0.1, affine=True)
    (2): PReLU (8)
    (3): Conv2d(8, 8, kernel_size=(1, 1), stride=(1, 1), bias=False)
    (4): BatchNorm2d(8, eps=1e-05, momentum=0.1, affine=True)
    (5): PReLU (8)
    (6): Conv2d(8, 8, kernel_size=(1, 1), stride=(1, 1), bias=False)
    (7): BatchNorm2d(8, eps=1e-05, momentum=0.1, affine=True)
    (8): PReLU (8)
  )
  (layer1): Sequential (
    (0): Conv2d(8, 32, kernel_size=(3, 3), stride=(1, 1), padding=(1, 1), bias=False)
    (1): BatchNorm2d(32, eps=1e-05, momentum=0.1, affine=True)
    (2): PReLU (32)
    (3): Conv2d(32, 32, kernel_size=(1, 1), stride=(1, 1), bias=False)
    (4): BatchNorm2d(32, eps=1e-05, momentum=0.1, affine=True)
    (5): PReLU (32)
    (6): Conv2d(32, 32, kernel_size=(1, 1), stride=(1, 1), bias=False)
    (7): BatchNorm2d(32, eps=1e-05, momentum=0.1, affine=True)
    (8): PReLU (32)
    (9): Conv2d(32, 32, kernel_size=(3, 3), stride=(1, 1), padding=(1, 1), bias=False)
    (10): BatchNorm2d(32, eps=1e-05, momentum=0.1, affine=True)
    (11): PReLU (32)
    (12): MaxPool2d (size=(2, 2), stride=(2, 2), dilation=(1, 1))
  )
  (layer2): Sequential (
    (0): Conv2d(32, 64, kernel_size=(3, 3), stride=(1, 1), padding=(1, 1), bias=False)
    (1): BatchNorm2d(64, eps=1e-05, momentum=0.1, affine=True)
    (2): PReLU (64)
    (3): Conv2d(64, 64, kernel_size=(1, 1), stride=(1, 1), bias=False)
    (4): BatchNorm2d(64, eps=1e-05, momentum=0.1, affine=True)
    (5): PReLU (64)
    (6): Conv2d(64, 64, kernel_size=(1, 1), stride=(1, 1), bias=False)
    (7): BatchNorm2d(64, eps=1e-05, momentum=0.1, affine=True)
    (8): PReLU (64)
    (9): Conv2d(64, 64, kernel_size=(3, 3), stride=(1, 1), padding=(1, 1), bias=False)
    (10): BatchNorm2d(64, eps=1e-05, momentum=0.1, affine=True)
    (11): PReLU (64)
    (12): MaxPool2d (size=(2, 2), stride=(2, 2), dilation=(1, 1))
    (13): Dropout (p = 0.25)
  )
  (layer3): Sequential (
    (0): Conv2d(64, 128, kernel_size=(3, 3), stride=(1, 1), padding=(1, 1), bias=False)
    (1): BatchNorm2d(128, eps=1e-05, momentum=0.1, affine=True)
    (2): PReLU (128)
    (3): Conv2d(128, 128, kernel_size=(1, 1), stride=(1, 1), bias=False)
    (4): BatchNorm2d(128, eps=1e-05, momentum=0.1, affine=True)
    (5): PReLU (128)
    (6): Conv2d(128, 128, kernel_size=(1, 1), stride=(1, 1), bias=False)
    (7): BatchNorm2d(128, eps=1e-05, momentum=0.1, affine=True)
    (8): PReLU (128)
    (9): Conv2d(128, 128, kernel_size=(3, 3), stride=(1, 1), padding=(1, 1), bias=False)
    (10): BatchNorm2d(128, eps=1e-05, momentum=0.1, affine=True)
    (11): PReLU (128)
    (12): MaxPool2d (size=(2, 2), stride=(2, 2), dilation=(1, 1))
    (13): Dropout (p = 0.5)
  )
  (layer5): Sequential (
    (0): Linear (192 -> 512)
    (1): BatchNorm1d(512, eps=1e-05, momentum=0.1, affine=True)
    (2): ReLU (inplace)
    (3): Linear (512 -> 512)
    (4): BatchNorm1d(512, eps=1e-05, momentum=0.1, affine=True)
    (5): ReLU (inplace)
  )
  (logit): Linear (512 -> 17)
)

** start training here! **
 epoch   iter   rate  |  smooth_loss  train_loss  (acc)  |  valid_loss    (acc)   | min
---------------------------------------------------------------------------------------
  1.0     390    0.1000   |  0.158  0.158  0.864 | 0.159  0.846  |  0.1 min 
  2.0     390    0.1000   |  0.131  0.131  0.889 | 0.132  0.879  |  0.1 min 
…
/root/share/project/pytorch/results/kaggle-forest/new-xx05/snap/final.torch:
	test_loss=0.097330, test_acc=0.915949, test_num=3000

--- [START 2017-05-04 21:48:59] ----------------------------------------------------------------

** some experiment setting **
	SEED    = 123
	file    = /root/share/project/pytorch/build/forest-0/train-forest-0.py
	out_dir = /root/share/project/pytorch/results/kaggle-forest/new-xx05

** dataset setting **
	(height,width)    = (32, 32)
	in_channels       = 3
	EXT               = jpg
	train_dataset.num = 37479
	test_dataset.num  = 3000
	batch_size = 96

** net setting **

SimpleNet2 (
  (layer0): Sequential (
    (0): Conv2d(3, 8, kernel_size=(1, 1), stride=(1, 1), bias=False)
    (1): BatchNorm2d(8, eps=1e-05, momentum=0.1, affine=True)
    (2): PReLU (8)
    (3): Conv2d(8, 8, kernel_size=(1, 1), stride=(1, 1), bias=False)
    (4): BatchNorm2d(8, eps=1e-05, momentum=0.1, affine=True)
    (5): PReLU (8)
    (6): Conv2d(8, 8, kernel_size=(1, 1), stride=(1, 1), bias=False)
    (7): BatchNorm2d(8, eps=1e-05, momentum=0.1, affine=True)
    (8): PReLU (8)
  )
  (layer1): Sequential (
    (0): Conv2d(8, 32, kernel_size=(3, 3), stride=(1, 1), padding=(1, 1), bias=False)
    (1): BatchNorm2d(32, eps=1e-05, momentum=0.1, affine=True)
    (2): PReLU (32)
    (3): Conv2d(32, 32, kernel_size=(1, 1), stride=(1, 1), bias=False)
    (4): BatchNorm2d(32, eps=1e-05, momentum=0.1, affine=True)
    (5): PReLU (32)
    (6): Conv2d(32, 32, kernel_size=(1, 1), stride=(1, 1), bias=False)
    (7): BatchNorm2d(32, eps=1e-05, momentum=0.1, affine=True)
    (8): PReLU (32)
    (9): Conv2d(32, 32, kernel_size=(1, 1), stride=(1, 1), bias=False)
    (10): BatchNorm2d(32, eps=1e-05, momentum=0.1, affine=True)
    (11): PReLU (32)
    (12): Conv2d(32, 32, kernel_size=(3, 3), stride=(1, 1), padding=(1, 1), bias=False)
    (13): BatchNorm2d(32, eps=1e-05, momentum=0.1, affine=True)
    (14): PReLU (32)
    (15): MaxPool2d (size=(2, 2), stride=(2, 2), dilation=(1, 1))
  )
  (layer2): Sequential (
    (0): Conv2d(32, 64, kernel_size=(3, 3), stride=(1, 1), padding=(1, 1), bias=False)
    (1): BatchNorm2d(64, eps=1e-05, momentum=0.1, affine=True)
    (2): PReLU (64)
    (3): Conv2d(64, 64, kernel_size=(1, 1), stride=(1, 1), bias=False)
    (4): BatchNorm2d(64, eps=1e-05, momentum=0.1, affine=True)
    (5): PReLU (64)
    (6): Conv2d(64, 64, kernel_size=(1, 1), stride=(1, 1), bias=False)
    (7): BatchNorm2d(64, eps=1e-05, momentum=0.1, affine=True)
    (8): PReLU (64)
    (9): Conv2d(64, 64, kernel_size=(1, 1), stride=(1, 1), bias=False)
    (10): BatchNorm2d(64, eps=1e-05, momentum=0.1, affine=True)
    (11): PReLU (64)
    (12): Conv2d(64, 64, kernel_size=(3, 3), stride=(1, 1), padding=(1, 1), bias=False)
    (13): BatchNorm2d(64, eps=1e-05, momentum=0.1, affine=True)
    (14): PReLU (64)
    (15): MaxPool2d (size=(2, 2), stride=(2, 2), dilation=(1, 1))
    (16): Dropout (p = 0.25)
  )
  (layer3): Sequential (
    (0): Conv2d(64, 128, kernel_size=(3, 3), stride=(1, 1), padding=(1, 1), bias=False)
    (1): BatchNorm2d(128, eps=1e-05, momentum=0.1, affine=True)
    (2): PReLU (128)
    (3): Conv2d(128, 128, kernel_size=(1, 1), stride=(1, 1), bias=False)
    (4): BatchNorm2d(128, eps=1e-05, momentum=0.1, affine=True)
    (5): PReLU (128)
    (6): Conv2d(128, 128, kernel_size=(1, 1), stride=(1, 1), bias=False)
    (7): BatchNorm2d(128, eps=1e-05, momentum=0.1, affine=True)
    (8): PReLU (128)
    (9): Conv2d(128, 128, kernel_size=(1, 1), stride=(1, 1), bias=False)
    (10): BatchNorm2d(128, eps=1e-05, momentum=0.1, affine=True)
    (11): PReLU (128)
    (12): Conv2d(128, 128, kernel_size=(3, 3), stride=(1, 1), padding=(1, 1), bias=False)
    (13): BatchNorm2d(128, eps=1e-05, momentum=0.1, affine=True)
    (14): PReLU (128)
    (15): MaxPool2d (size=(2, 2), stride=(2, 2), dilation=(1, 1))
    (16): Dropout (p = 0.5)
  )
  (layer5): Sequential (
    (0): Linear (192 -> 512)
    (1): BatchNorm1d(512, eps=1e-05, momentum=0.1, affine=True)
    (2): ReLU (inplace)
    (3): Linear (512 -> 512)
    (4): BatchNorm1d(512, eps=1e-05, momentum=0.1, affine=True)
    (5): ReLU (inplace)
  )
  (logit): Linear (512 -> 17)
)

** start training here! **
 epoch   iter   rate  |  smooth_loss  train_loss  (acc)  |  valid_loss    (acc)   | min
---------------------------------------------------------------------------------------
  1.0     390    0.1000   |  0.143  0.143  0.875 | 0.162  0.845  |  0.1 min 
  2.0     390    0.1000   |  0.160  0.160  0.860 | 0.133  0.883  |  0.1 min 
…
	train_dataset.num = 37479
	test_dataset.num  = 3000
	batch_size = 96

** net setting **

--- [START 2017-05-04 22:06:54] ----------------------------------------------------------------

** some experiment setting **
	SEED    = 123
	file    = /root/share/project/pytorch/build/forest-0/train-forest-0.py
	out_dir = /root/share/project/pytorch/results/kaggle-forest/new-xx05

** dataset setting **
	(height,width)    = (64, 64)
	in_channels       = 3
	EXT               = jpg
	train_dataset.num = 37479
	test_dataset.num  = 3000
	batch_size = 96

** net setting **

SimpleNet64_2 (
  (layer0): Sequential (
    (0): Conv2d(3, 8, kernel_size=(1, 1), stride=(1, 1), bias=False)
    (1): BatchNorm2d(8, eps=1e-05, momentum=0.1, affine=True)
    (2): PReLU (8)
    (3): Conv2d(8, 8, kernel_size=(1, 1), stride=(1, 1), bias=False)
    (4): BatchNorm2d(8, eps=1e-05, momentum=0.1, affine=True)
    (5): PReLU (8)
    (6): Conv2d(8, 8, kernel_size=(1, 1), stride=(1, 1), bias=False)
    (7): BatchNorm2d(8, eps=1e-05, momentum=0.1, affine=True)
    (8): PReLU (8)
  )
  (layer1): Sequential (
    (0): Conv2d(8, 32, kernel_size=(3, 3), stride=(1, 1), padding=(1, 1), bias=False)
    (1): BatchNorm2d(32, eps=1e-05, momentum=0.1, affine=True)
    (2): PReLU (32)
    (3): Conv2d(32, 32, kernel_size=(1, 1), stride=(1, 1), bias=False)
    (4): BatchNorm2d(32, eps=1e-05, momentum=0.1, affine=True)
    (5): PReLU (32)
    (6): Conv2d(32, 32, kernel_size=(1, 1), stride=(1, 1), bias=False)
    (7): BatchNorm2d(32, eps=1e-05, momentum=0.1, affine=True)
    (8): PReLU (32)
    (9): Conv2d(32, 32, kernel_size=(1, 1), stride=(1, 1), bias=False)
    (10): BatchNorm2d(32, eps=1e-05, momentum=0.1, affine=True)
    (11): PReLU (32)
    (12): Conv2d(32, 32, kernel_size=(3, 3), stride=(1, 1), padding=(1, 1), bias=False)
    (13): BatchNorm2d(32, eps=1e-05, momentum=0.1, affine=True)
    (14): PReLU (32)
    (15): MaxPool2d (size=(2, 2), stride=(2, 2), dilation=(1, 1))
  )
  (layer2): Sequential (
    (0): Conv2d(32, 32, kernel_size=(3, 3), stride=(1, 1), padding=(1, 1), bias=False)
    (1): BatchNorm2d(32, eps=1e-05, momentum=0.1, affine=True)
    (2): PReLU (32)
    (3): Conv2d(32, 32, kernel_size=(1, 1), stride=(1, 1), bias=False)
    (4): BatchNorm2d(32, eps=1e-05, momentum=0.1, affine=True)
    (5): PReLU (32)
    (6): Conv2d(32, 32, kernel_size=(1, 1), stride=(1, 1), bias=False)
    (7): BatchNorm2d(32, eps=1e-05, momentum=0.1, affine=True)
    (8): PReLU (32)
    (9): Conv2d(32, 32, kernel_size=(1, 1), stride=(1, 1), bias=False)
    (10): BatchNorm2d(32, eps=1e-05, momentum=0.1, affine=True)
    (11): PReLU (32)
    (12): Conv2d(32, 32, kernel_size=(3, 3), stride=(1, 1), padding=(1, 1), bias=False)
    (13): BatchNorm2d(32, eps=1e-05, momentum=0.1, affine=True)
    (14): PReLU (32)
    (15): MaxPool2d (size=(2, 2), stride=(2, 2), dilation=(1, 1))
  )
  (layer3): Sequential (
    (0): Conv2d(32, 64, kernel_size=(3, 3), stride=(1, 1), padding=(1, 1), bias=False)
    (1): BatchNorm2d(64, eps=1e-05, momentum=0.1, affine=True)
    (2): PReLU (64)
    (3): Conv2d(64, 64, kernel_size=(1, 1), stride=(1, 1), bias=False)
    (4): BatchNorm2d(64, eps=1e-05, momentum=0.1, affine=True)
    (5): PReLU (64)
    (6): Conv2d(64, 64, kernel_size=(1, 1), stride=(1, 1), bias=False)
    (7): BatchNorm2d(64, eps=1e-05, momentum=0.1, affine=True)
    (8): PReLU (64)
    (9): Conv2d(64, 64, kernel_size=(1, 1), stride=(1, 1), bias=False)
    (10): BatchNorm2d(64, eps=1e-05, momentum=0.1, affine=True)
    (11): PReLU (64)
    (12): Conv2d(64, 64, kernel_size=(3, 3), stride=(1, 1), padding=(1, 1), bias=False)
    (13): BatchNorm2d(64, eps=1e-05, momentum=0.1, affine=True)
    (14): PReLU (64)
    (15): MaxPool2d (size=(2, 2), stride=(2, 2), dilation=(1, 1))
    (16): Dropout (p = 0.25)
  )
  (layer4): Sequential (
    (0): Conv2d(64, 128, kernel_size=(3, 3), stride=(1, 1), padding=(1, 1), bias=False)
    (1): BatchNorm2d(128, eps=1e-05, momentum=0.1, affine=True)
    (2): PReLU (128)
    (3): Conv2d(128, 128, kernel_size=(1, 1), stride=(1, 1), bias=False)
    (4): BatchNorm2d(128, eps=1e-05, momentum=0.1, affine=True)
    (5): PReLU (128)
    (6): Conv2d(128, 128, kernel_size=(1, 1), stride=(1, 1), bias=False)
    (7): BatchNorm2d(128, eps=1e-05, momentum=0.1, affine=True)
    (8): PReLU (128)
    (9): Conv2d(128, 128, kernel_size=(1, 1), stride=(1, 1), bias=False)
    (10): BatchNorm2d(128, eps=1e-05, momentum=0.1, affine=True)
    (11): PReLU (128)
    (12): Conv2d(128, 128, kernel_size=(3, 3), stride=(1, 1), padding=(1, 1), bias=False)
    (13): BatchNorm2d(128, eps=1e-05, momentum=0.1, affine=True)
    (14): PReLU (128)
    (15): MaxPool2d (size=(2, 2), stride=(2, 2), dilation=(1, 1))
    (16): Dropout (p = 0.5)
  )
  (layer5): Sequential (
    (0): Linear (192 -> 512)
    (1): BatchNorm1d(512, eps=1e-05, momentum=0.1, affine=True)
    (2): ReLU (inplace)
    (3): Linear (512 -> 512)
    (4): BatchNorm1d(512, eps=1e-05, momentum=0.1, affine=True)
    (5): ReLU (inplace)
  )
  (logit): Linear (512 -> 17)
)

** start training here! **
 epoch   iter   rate  |  smooth_loss  train_loss  (acc)  |  valid_loss    (acc)   | min
---------------------------------------------------------------------------------------
  1.0     390    0.1000   |  0.156  0.156  0.843 | 0.160  0.833  |  0.4 min 
  2.0     390    0.1000   |  0.133  0.133  0.883 | 0.139  0.873  |  0.4 min 
…
